net.pkl (torch, 2447 bytes, 3 tensors)

weight f4 [10, 1]
-0.30639267 -1.1627169 0.8822697 0.86649114 -0.9735707 0.25321865 -0.09923007 0.5526711
-1.0554525 -0.53020006
00000000: 80df 9cbe e8d3 94bf 6ddc 613f 5dd2 5d3f
00000010: ee3b 79bf e0a5 813e 2339 cbbd da7b 0d3f
00000020: 1119 87bf 31bb 07bf

bias f4 [10]
-0.70810735 0.18170068 0.017201416 0.17004508 -0.98951554 0.13255216 0.07249721 -0.8806683
-0.86432225 -0.06870485
00000000: 8646 35bf be0f 3a3e fce9 8c3c 4c20 2e3e
00000010: e450 7dbf c1bb 073e 6b79 943d 7a73 61bf
00000020: 3944 5dbf 21b5 8cbd

weight f4 [1, 10]
0.20231894 0.72810763 0.6389918 0.55788654 0.20099494 0.02397166 -0.004371579 -0.3068935
0.12396282 0.3381532
00000000: b22c 4f3e 4365 3a3f f794 233f a7d1 0e3f
00000010: 9ed1 4d3e 3760 c43c 763f 8fbb 2521 9dbe
00000020: 38e0 fd3d 6b22 ad3e
